saved_model.pth (torch, 14384 bytes, 6 tensors)

fc1.weight f4 [64, 11]
000000 03 db bf be 82 47 06 bd 2c 7d 0e 3d ed 27 b4 3a
       -0.3747178 -0.03278304 0.034787342 0.0013744809
000010 ba ce 99 bf d0 43 76 bd 54 5e 5f be 77 4f 11 3d
       -1.2016213 -0.060123265 -0.21813327 0.035476174
000020 fd 40 97 bf 17 67 c8 3e fc a5 f3 3c 0b e3 47 bd
       -1.1816708 0.3914115 0.029742233 -0.04880051
000030 d7 91 38 bd c4 bf b3 3b 1a f2 3e c0 3a c5 f0 c1
       -0.04506096 0.0054855067 -2.9835267 -30.096302
000040 05 99 47 bd 44 f4 d8 bd d9 25 ba bc 31 8c 03 bf
       -0.048729915 -0.10593465 -0.022723125 -0.5138579
000050 3f 5f 32 3d 5c cf 00 bb f4 af ac 3d b4 7e d7 3d
       0.043547865 -0.0019654846 0.08431998 0.105222136
000060 8d 96 19 3e 8c c4 06 3e 47 1e ce 3e 60 a5 fe be
       0.14998837 0.13160914 0.40257475 -0.49735546
000070 7c ce af bf 6f 08 21 3e 3b bc 91 3e df 50 6e 3d
       -1.3734889 0.15725873 0.2846392 0.058182593
000080 6c ec f6 3b 9a 71 50 3e f7 a1 92 3b ae 63 36 3d
       0.007535508 0.20355836 0.004474874 0.044528656
000090 66 b0 2b bf 9d 33 71 c1 e4 a4 ef 3d 82 fc c7 be
       -0.6706604 -15.075101 0.11701372 -0.39059836
0000a0 1e 65 6d bf d0 3b c8 3c 6e a3 2e 3d fe d7 d6 bc
       -0.9273242 0.024442583 0.042636327 -0.02622604
0000b0 2c 3f 94 be b3 58 12 3d 7e f0 f2 3c ed cd 7c be
       -0.28954446 0.03572912 0.029655691 -0.2468793
0000c0 94 0b 9a c0 7e 77 d9 bb 93 fa 20 3d a9 ff 02 3f
       -4.8139133 -0.006636559 0.039301466 0.51171356
0000d0 8b cc 60 bf 26 35 19 3e e5 4c 06 bd 21 0d 35 bd
       -0.8781211 0.14961681 -0.032788176 -0.044201974
0000e0 cc 7a 12 3e 98 03 ec 3e ed 75 98 3d e4 85 d4 3e
       0.14304656 0.46096492 0.074443676 0.415084
0000f0 4a 18 75 bf 27 7f 02 bf de f8 21 3e 53 ee 2e 3d
       -0.9574019 -0.5097527 0.15817592 0.042707752
000100 60 b5 1f 3e cd 72 85 bc 90 b0 df bd fe 41 02 be
       0.15596533 -0.016290093 -0.109223485 -0.12720487
000110 11 f8 e2 bd a4 2c 4c bd fd 1c 41 3f 3b 6b 84 3e
       -0.11082471 -0.04984726 0.7543486 0.2586306
000120 6a de 10 3f c4 3e 95 be fa cf 28 bd 7a 0d 8b 3e
       0.56589377 -0.2914945 -0.041213967 0.2715872
000130 aa 3d 35 3d e5 ec 79 bc 7b 10 87 3d 58 e3 05 3c
       0.04424826 -0.015254234 0.0659494 0.008171879
000140 71 dd 07 3e 8e 55 8e 3e fe 0f fe 3c df 28 31 3d
       0.13268067 0.27799648 0.031013485 0.04325187
000150 48 ed 46 3d ac 7a 9b 3d 91 9b 7f 3f 54 34 bf 3a
       0.048566133 0.07591757 0.9984675 0.0014587739
000160 da b5 69 3c e9 b2 13 bc 10 7b 5f 3c c2 f6 35 3e
       0.014264548 -0.0090148235 0.01364018 0.17769912
000170 7c 16 08 c0 fd 68 cc bf d3 4d 7a 3c 62 0f d7 3c
       -2.1263723 -1.596954 0.015277344 0.026252452
000180 4f 8f a9 3e 14 c0 0f 3d cc cd 1b bc 03 94 10 c0
       0.33117148 0.03509529 -0.009509515 -2.259034
000190 e5 e5 20 bd d2 4b 4f bd 13 4c 6a 3f bc a5 7b 3f
       -0.039281745 -0.050609417 0.9152233 0.98299766
0001a0 e9 a3 74 bc 21 e8 84 3d 2f ea 82 3d 42 a8 c5 3d
       -0.014931657 0.064895876 0.06392323 0.09651233
0001b0 2e 57 30 3e a6 59 dd bc 04 dd e7 bf f6 ba 9c 3d
       0.17220756 -0.027020287 -1.8114324 0.076528475
0001c0 b1 8b 9a 3d aa ed 42 be bd 97 95 bf 68 6c 13 be
       0.07546175 -0.19035974 -1.1686932 -0.14396822
0001d0 62 73 3e 3d 2a cd a4 3e b1 50 c5 3d 6e 6a 80 bc
       0.046496756 0.32187778 0.09634531 -0.01567575
0001e0 65 df e7 3c dd 58 19 3d 77 fa 83 be 4a 83 7b 3b
       0.028304765 0.037438262 -0.25777027 0.0038377815
0001f0 f0 6a 65 3e 13 4f dc 3f 63 e4 65 3f c0 b5 b0 bb
       0.22404075 1.7211632 0.89801615 -0.00539276
000200 30 97 e2 3b 8a 6d 1c 3c c5 dc ec bc 1b ea 60 bb
       0.0069149956 0.0095476005 -0.028913865 -0.0034319225
000210 e8 53 3c 3e d3 a4 ad 3e 02 81 3f bd 63 9a a9 3e
       0.18391383 0.33914813 -0.04675389 0.331256
000220 08 4a 2a bf 98 f9 97 bf a6 82 c2 3d 35 76 12 3e
       -0.6651921 -1.1873045 0.094975755 0.14302905
000230 eb 53 fb ba ca e9 91 3e 74 0c 18 3d 23 13 90 bd
       -0.001917479 0.2849868 0.03712125 -0.070349
000240 28 fd fc 3d 08 0f b9 3c 56 da 71 3e 90 e9 b6 3e
       0.12352973 0.022590175 0.23618445 0.3572507
000250 47 23 02 3e 27 90 1c 3e ec 3a 9c 3f ef 07 b1 3e
       0.1270877 0.15289365 1.2205482 0.34576365
000260 6c 88 6c 3e 03 66 5b bc 96 3b 72 bf ab 25 a7 3c
       0.23098916 -0.013391021 -0.9462217 0.020403704
000270 2c 47 f5 3c 45 b7 6c bf 61 61 53 be 0d d4 e6 be
       0.029941164 -0.9246715 -0.20642616 -0.45083657
000280 f5 77 92 3d df 85 75 3c 16 1f 83 be 72 13 ad 3c
       0.07151786 0.014985531 -0.25609654 0.021127436
000290 61 87 f3 bc 69 87 20 c0 34 31 fe 3c cc 0d 49 ba
       -0.02972764 -2.5082648 0.031029321 -0.00076695974
0002a0 38 fe db 3d 7c 00 3e 3f 56 79 d8 3b 24 52 3a 3d
       0.10741848 0.7421949 0.0066062612 0.04548849
0002b0 7e e1 ec 3c ef f0 92 bf cc 80 db bb fe 8b d9 3c
       0.028916117 -1.1479777 -0.0066987034 0.026556011
0002c0 42 7c 45 40 d4 f0 ce 3c 98 5e e9 3c b7 7d 6d 3d
       3.085709 0.02526132 0.028487489 0.05798122
0002d0 c0 79 5f c1 17 bc a9 3c a2 24 36 be cd e2 af bc
       -13.967224 0.020719571 -0.17787412 -0.021470452
0002e0 3b 2b 02 3d 70 e4 1b 3d 17 8c 29 bc 14 6f 4a bf
       0.03177951 0.03805965 -0.010348341 -0.7907574
0002f0 2a a9 ce bc c8 ff 80 3d fe 29 2c 3d 7b 09 3c c0
       -0.025227148 0.062987864 0.042032234 -2.9380786
000300 e9 3b 0b 3e eb c5 ac be 88 9c 52 bf 24 53 50 3d
       0.13597073 -0.3374475 -0.822701 0.05086054
000310 05 73 93 be f5 4b 8f 3d b1 54 02 3e 8d 10 6d 3e
       -0.2879869 0.069969095 0.1272762 0.23150845
000320 e9 1b 1d 3e a6 e8 f5 bd b6 b6 8e 3e 42 69 54 bc
       0.15342678 -0.12007265 0.27873772 -0.012964549
000330 5c 1c 07 bd 26 7a de 3e 64 21 74 bd 05 1a 36 3d
       -0.03298603 0.43452567 -0.059602156 0.044458408
000340 e9 01 ba bc 8e a4 92 3e d9 eb 2a 3d e6 0a b0 bd
       -0.022705989 0.2864117 0.041728828 -0.08595829
000350 b0 f6 ba bf 91 de 5d bf 45 02 60 bd 04 fe 27 3f
       -1.4606533 -0.86667734 -0.054689664 0.6562197
000360 4b 51 8c 3c c7 b4 81 bd dc 2f 19 3e 1e ec 94 bc
       0.017128607 -0.06333309 0.14959663 -0.018178996
000370 b4 f3 1d 3c 0a d6 07 3d 03 a6 75 3c d1 7d 84 c1
       0.009640623 0.033163108 0.014993194 -16.561434
000380 f1 03 0e 3f a4 62 be bc 1d 24 21 b7 2a a5 85 3c
       0.55474764 -0.023240395 -9.604756e-06 0.016314108
000390 03 88 9a 3a e6 ea a5 3b eb ca 90 3a 4f 9e 2b be
       0.0011789802 0.0050634025 0.0011046802 -0.16759609
0003a0 b7 22 cd 3e 89 ce 27 3f 18 86 5c 3c 19 43 b9 3e
       0.40065548 0.6554952 0.013459705 0.36184004
0003b0 ce de 97 3b 7d 17 99 3e 6a 33 8b 3e 5c 54 07 3e
       0.0046347147 0.29900733 0.27187663 0.13215774
0003c0 68 93 cd 3d f3 31 8f 3b 31 7f d6 bf 0c 0c aa 3e
       0.10037881 0.004369968 -1.6757566 0.33212316
0003d0 bc 1f ee bc 9f d6 89 bf 5b 13 ef 3f 0c 6b 8a 3e
       -0.029067867 -1.0768622 1.8677782 0.27034795
0003e0 6b 3b a7 be a6 f7 a7 3d 1d 7d 72 bd 4e 30 10 3d
       -0.3266252 0.08201532 -0.05920135 0.035202317
0003f0 84 8a 10 3d e8 c0 98 bd 06 a9 b5 bd 21 db 8e bd
       0.03528835 -0.07458669 -0.08870129 -0.06975389

fc1.bias f4 [64]
000000 e4 50 78 bf cb cd 84 3d dd f1 8b 3c b4 7f 5f bf
       -0.9699843 0.064845644 0.017083103 -0.87304235
000010 38 55 74 bf 55 9b 12 be 79 1e 01 3e 17 5d 08 bf
       -0.95442533 -0.14317067 0.1260928 -0.53267044
000020 64 aa 3f bf 76 37 f3 be 6d f7 70 bf d2 9c 91 3e
       -0.7486937 -0.4750325 -0.9412754 0.28439957
000030 ac 43 90 be f0 6f 72 bf af b5 81 bf 4e 5e e7 3e
       -0.2817663 -0.94702053 -1.013357 0.45189136
000040 a8 dc 06 3e 6f 9d ae bf fd 8c 8e bf c3 45 36 bf
       0.13170111 -1.3641795 -1.1136776 -0.712002
000050 45 f8 18 bd c2 85 5c be f6 f7 35 be 62 0a 41 bf
       -0.037346143 -0.215354 -0.17770371 -0.7540647
000060 84 8a 41 bf 91 4f 70 bf 2c 6e 94 be f8 74 06 bf
       -0.75601983 -0.9387141 -0.28990304 -0.5252223
000070 d9 c3 68 be 3a 8e db 3c fe de 44 bf 01 e8 44 bf
       -0.2273096 0.026801217 -0.7690276 -0.7691651
000080 02 88 44 3f 85 73 3d be ca aa 2c be cd f7 2e bf
       0.7677003 -0.18501098 -0.16862026 -0.68346864
000090 00 b3 8d 3e 7b 8d cc be 73 7f df be 1a b6 8c bf
       0.2767563 -0.3995169 -0.43651924 -1.0993073
0000a0 2a c7 52 bf 0d 53 94 bf 2b 90 25 3e 54 d0 85 bf
       -0.8233515 -1.1587845 0.16168277 -1.0454202
0000b0 24 78 83 3e 03 cb fe 3d ee 77 24 3f da cc 65 bd
       0.25677598 0.12441065 0.642455 -0.056103565
0000c0 c3 68 b5 3c 27 eb fc bf 86 03 1a 3f 5c e7 dc 3e
       0.02214468 -1.9759263 0.60161626 0.43145263
0000d0 2e d1 83 be 57 36 13 be 17 00 46 bf 74 19 3a bf
       -0.2574553 -0.14376198 -0.7734389 -0.7269509
0000e0 63 1d 84 3e 09 5d 76 bf 2d 08 05 bf 5b cc ab bb
       0.2580367 -0.9623571 -0.519656 -0.005242867
0000f0 de fe aa 3e c4 74 46 bf 54 cf b5 3e ba 58 2e bf
       0.33397573 -0.7752192 0.3550974 -0.68104136

fc2.weight f4 [32, 64]
000000 23 3f d8 3e 52 81 85 be a1 0e e2 3e 06 a8 39 3e
       0.4223567 -0.26075226 0.44151786 0.18130502
000010 f4 b1 93 be 86 66 af bc d6 75 1d bf 12 84 9e 3e
       -0.28846705 -0.021411192 -0.6150793 0.30960137
000020 4b 51 a6 be c7 85 a9 bf 19 0d d8 bf 3b 1b 4c 3e
       -0.32483897 -1.3243951 -1.6878997 0.19932263
000030 26 7d 37 bd 02 d4 9f 3e 66 ec cf bd aa b1 cb be
       -0.044797085 0.31216437 -0.10152511 -0.39783984
000040 16 80 38 bf b7 3b b0 bd 6e d3 af bd 9b c3 09 be
       -0.72070444 -0.0860514 -0.08585249 -0.13453524
000050 95 1a 33 3f 11 79 be 3e 08 39 ad be 29 65 ba 3d
       0.69962436 0.3720174 -0.33832574 0.09101326
000060 cd e8 f6 bf 22 d1 93 3b 68 3d 00 bf d0 89 b3 3f
       -1.9289795 0.0045110146 -0.500937 1.4026432
000070 f4 f5 81 3f 84 16 a7 3e 02 18 89 3d dc d8 5e 3e
       1.0153184 0.32634366 0.06694032 0.21762413
000080 02 fd 76 3c d8 f8 1b bf 8e dc 14 3e 68 d7 5a be
       0.01507497 -0.6092658 0.1453726 -0.21371233
000090 30 e4 c3 3d d5 df 0a 3e dd 9d 08 3f 4b da 82 3d
       0.09565008 0.13561948 0.5336588 0.06389292
0000a0 95 04 9f 3e d0 44 75 be 92 f0 b1 3d 2a 29 0a be
       0.31058183 -0.23952031 0.08688463 -0.13492265
0000b0 43 67 d3 be 94 4f 23 3f b6 54 e1 be bd fd 63 40
       -0.4128972 0.637933 -0.44009942 3.562362
0000c0 d9 0f ed be 8f 7d 94 3e 87 ce 7b be 64 13 d6 bd
       -0.46301153 0.29002044 -0.24590503 -0.10452917
0000d0 da 4e f5 3e 9e 08 15 40 de e0 3f 3d 31 52 e7 3e
       0.4791172 2.328651 0.04684531 0.45179895
0000e0 c4 51 8f be 4a 3a ce be 20 a6 71 bf 71 1e 19 40
       -0.2799207 -0.40278846 -0.9439411 2.392483
0000f0 a3 44 6a 3c 3e c5 b7 bd 65 51 72 3e 07 d1 3b bf
       0.014298591 -0.08973168 0.23663862 -0.73365825
000100 60 6d ec bd 3c 29 d6 be 71 25 8a bf 1d 56 b7 be
       -0.11544299 -0.41828334 -1.0792676 -0.35807887
000110 b1 24 5f be f0 f0 d1 be 26 f7 62 be d4 ba 00 3d
       -0.2179134 -0.41004133 -0.22164592 0.031428173
000120 fd 10 17 bf b4 b4 1e 3d b2 d3 e4 3e 65 b1 5a 3e
       -0.590103 0.03874655 0.4469276 0.21356733
000130 03 91 8e be 71 65 da bd d2 a6 0d 3d da 21 58 3e
       -0.2784501 -0.1066388 0.03458292 0.21106663
000140 b9 21 6e bd af fb db 3e 12 d2 b0 3d 6b c3 4b bf
       -0.05813763 0.42965457 0.08633818 -0.7959506
000150 f8 ae 75 bf 43 01 18 3e 5f 4d ad bc 23 0d 2e 3c
       -0.95970106 0.14844231 -0.021155057 0.010623249
000160 69 8e 1b be 56 c0 0a 3e e3 09 81 3e d2 1a c5 bd
       -0.15191044 0.13549933 0.25202855 -0.09624256
000170 85 35 43 bf f3 1d fb be bc 51 07 3f 84 37 a4 3e
       -0.7625354 -0.49046287 0.5285909 0.32073605
000180 28 48 71 bc a6 9b 4b 3d 5d 7b 14 3e cf e1 66 bf
       -0.014726676 0.049708985 0.14500184 -0.90188307
000190 3f c1 4d 3f a5 86 a9 3e d3 98 0f 3c c6 2e 55 be
       0.80372995 0.33110538 0.0087644635 -0.20818624
0001a0 23 5b 6e be ed 5a fd 3e 79 14 20 3e f2 a0 9b be
       -0.23276953 0.49483433 0.1563281 -0.3039623
0001b0 94 66 c5 bd 8b 1d 9b be 8a 52 e4 3b 8c 1f 43 40
       -0.09638706 -0.30295977 0.0069678472 3.0488005
0001c0 68 a7 ad 3e 74 79 5a be 2b 09 09 3e ec b0 97 bd
       0.33916783 -0.21335393 0.13382404 -0.07406792
0001d0 53 98 db ba 26 99 87 3e b9 58 5b 3d 23 cd f9 bd
       -0.001675377 0.2648403 0.05355141 -0.1219733
0001e0 c1 7c 3e bf 6f 0a 4a 3e ca 84 92 bd 57 20 5b 3e
       -0.7440911 0.19730543 -0.07154234 0.21399055
0001f0 2d 28 04 bf 55 f8 8c 3e 8a 1e a1 bf 54 fe 8a 3b
       -0.51623803 0.27533212 -1.2587445 0.004241744
000200 48 db cb 3e 71 f8 82 bf a7 9f b8 3e cc 00 e5 bd
       0.39815736 -1.0232068 0.36059305 -0.111817926
000210 f4 c2 0b bf 98 b8 64 3e 3e c7 08 bf d5 68 09 3f
       -0.5459435 0.22336042 -0.5342902 0.53675586
000220 9d 3d d1 3e 16 92 e6 be c1 71 99 3d a3 74 4b bf
       0.4086732 -0.4503333 0.074924 -0.7947485
000230 df 9a 1e 3b 02 3a fe 3e d0 44 65 bd b3 a7 0a 3f
       0.0024201197 0.4965363 -0.055973828 0.5416214
000240 f9 8f 98 3d 9a f9 dc bf c5 e5 ac be e0 07 1e bf
       0.074493356 -1.7263672 -0.3376905 -0.61730766
000250 e1 c7 b7 3f 43 cc 9c be 39 11 54 bc c7 6b 93 3d
       1.4357873 -0.3062459 -0.012943559 0.07198291
000260 de ef d5 3b ec f3 56 3f b8 ce 05 bf 4c c8 36 bf
       0.0065288385 0.83965945 -0.5226855 -0.7139938
000270 6d 5e e3 be 4a 52 e1 be 1d a7 c1 be 86 ae 45 bf
       -0.4440798 -0.44008094 -0.3782281 -0.77219427
000280 25 c7 95 3e 49 8f 81 be 2c 04 2b 3f b9 b9 0c 3e
       0.29253498 -0.2530463 0.6680324 0.13742723
000290 ad 8a 2e bf 63 c7 ce 3d 6a 90 01 3d 1c 9a e6 be
       -0.6818035 0.10096624 0.031631865 -0.4503945
0002a0 5c 11 8e bf 71 fc d1 3e 08 ba 72 be ca af aa be
       -1.1099048 0.4101291 -0.23703778 -0.3333724
0002b0 1f c7 82 be ce c6 1e be 50 0b 75 be 19 c2 97 3f
       -0.25542542 -0.15505525 -0.23930097 1.1856109
0002c0 3e 9d b9 bb b4 0b b8 be 9c e3 32 3e fb c8 b2 bd
       -0.0056644967 -0.3594643 0.17469639 -0.0872974
0002d0 dd ac 94 be b6 38 8e 3e 7c 3f 58 3e 3d 59 0c be
       -0.29038134 0.27777642 0.21117967 -0.13705917
0002e0 41 a7 a4 be c3 6b 6b bd 2a 99 16 3f f9 7c d5 3c
       -0.32158855 -0.057475816 0.5882746 0.026060568
0002f0 59 f9 58 3e 7f c5 99 be 28 6f 57 bd 12 e8 5e be
       0.21188869 -0.3003349 -0.05259624 -0.21768215
000300 03 5d bb 3e a1 eb 43 bf 26 04 75 3c 76 d6 86 3e
       0.365944 -0.76531416 0.014954602 0.26335496
000310 0a 52 68 3d 59 5b 4a 3e 7d 54 30 be 9d 36 06 3f
       0.056718864 0.19761409 -0.1721973 0.52427083
000320 7f 5e b4 3e e6 bd a9 bf be a2 83 bf 5e 91 ac bf
       0.35228345 -1.3261077 -1.028404 -1.3481863
000330 a1 a3 69 be ce 49 30 3e 3f 04 d3 be b2 ad bf 3e
       -0.22816326 0.17215654 -0.41214177 0.37437207
000340 b7 4a 10 bf 16 78 ae 3e b5 29 ba 3c 2d 2d a9 3e
       -0.56364006 0.34075993 0.022724966 0.3304228
000350 0f 81 c1 3e 39 b4 fb 3e d4 4d 3b bf 5f f5 17 3f
       0.37793776 0.49160936 -0.7316563 0.5935878
000360 ac 01 57 be 53 be 92 bf 28 76 23 3e a0 90 9d 3e
       -0.20996732 -1.1464332 0.15963042 0.30774403
000370 dd b6 bc be 7a 8c 48 bf 7a 95 46 3c 22 64 a2 3e
       -0.36858264 -0.7833935 0.012120599 0.3171702
000380 17 9b a8 3e 0c 8c 71 be c0 f4 b3 3e c7 5c 66 be
       0.32930824 -0.2358858 0.35147667 -0.22496329
000390 46 57 15 be 18 a3 6b 3e 0a 96 15 be d5 69 18 be
       -0.14584073 0.23011434 -0.14608017 -0.14884122
0003a0 fb cf f5 3e 0d 94 27 bf 47 2b b0 bd eb b9 44 bd
       0.4801024 -0.6546028 -0.086020045 -0.048028868
0003b0 44 7c 36 bf ea 47 79 be f4 75 0a bf 5a d4 fc 3e
       -0.71283364 -0.2434384 -0.5408623 0.4938076
0003c0 0d f0 45 3e 79 03 b9 be 82 47 5d 3e e0 5c d0 bd
       0.19329853 -0.36135462 0.2160931 -0.101739645
0003d0 d8 5e 95 be bb 07 82 3f 1c c5 e1 3d e0 16 1b 3e
       -0.29173923 1.0158609 0.11023924 0.15145445
0003e0 7b 80 81 be a8 b4 85 be df 33 59 3c e9 c2 ab be
       -0.25293335 -0.26114392 0.013256996 -0.33547142
0003f0 0b 0c 9b 3e 5b 34 5d be 10 5f 9b 3e 81 63 40 be
       0.30282626 -0.21602003 0.30345964 -0.18787958

fc2.bias f4 [32]
000000 3b 41 02 3f 51 84 33 3f 94 2f f1 3e 81 58 73 3e
       0.50880784 0.70123774 0.47106612 0.2376423
000010 e4 74 cf 3e 9a 10 82 bd 52 f5 39 3f a6 14 40 3f
       0.40518868 -0.06350823 0.72639954 0.75031507
000020 f8 06 fe 3e be cb b1 3d 08 e0 a4 3f e4 5f da 3e
       0.49614692 0.08681439 1.2880869 0.42651284
000030 b2 a6 2a 3f df b2 e2 3f 57 53 0c 3f 04 6f 36 3f
       0.66660607 1.7710837 0.54814667 0.71263146
000040 ac 5c dc 3e 5c 3c 8e be c0 94 e6 3c 5f 6a 87 3e
       0.43039453 -0.27780426 0.028147101 0.26448342
000050 15 4f 09 be d6 9f bf 3f 8e 49 10 bf a1 e7 94 3f
       -0.13409074 1.4970653 -0.56362236 1.1633188
000060 29 55 31 3f b7 5b c2 3e f0 14 08 c0 d0 e4 a6 3e
       0.6927057 0.37960598 -2.126278 0.32596445
000070 86 3c 62 be 32 23 86 3e 66 0f b6 3e ad a0 06 bf
       -0.220934 0.26198727 0.35558623 -0.5258892

fc3.weight f4 [2, 32]
000000 76 26 6e be 45 76 06 3e d4 28 56 be 42 cb be bd
       -0.23256859 0.13131054 -0.20914012 -0.09316112
000010 89 69 10 3e e8 08 b2 bd 1a 0a d0 3e a5 27 d1 3c
       0.14102758 -0.08693105 0.40632707 0.0255316
000020 d1 24 78 3f a8 5e 04 3e 97 a9 b2 3e 4f c2 3f 3c
       0.9693118 0.12926733 0.34895012 0.011704042
000030 6d b1 e0 3b 00 0d 86 3e d5 97 a0 3e c2 5f 6a 3b
       0.0068570883 0.26181793 0.3136584 0.0035762643
000040 ee 92 22 3d 55 5c 9c bc bc 40 88 3e 92 51 53 3f
       0.039690904 -0.019086996 0.26611888 0.8254634
000050 d9 41 73 3d d6 3f 52 3e 2f 86 0c 3d 91 64 0b 3e
       0.05938897 0.20532164 0.034307655 0.13612582
000060 e1 a0 8a be a5 e2 26 bf 01 08 56 3e de 47 db bd
       -0.27075866 -0.6518958 0.20901491 -0.10707067
000070 1c ac 85 3e e1 ec 76 bf 44 6c 9a 3d b5 f4 84 3e
       0.26107872 -0.964552 0.07540181 0.25967947
000080 93 a5 26 3e ae 50 f3 bd 8f 32 e0 bc bd 82 80 3e
       0.16274099 -0.11880623 -0.027367858 0.25099745
000090 09 a6 ea 3b da d2 2a 3e a7 cc 6d be ec b3 10 be
       0.007160906 0.16681996 -0.232226 -0.14131135
0000a0 30 9b 7b bf 53 60 0b 3e 52 56 0b be b1 9b 80 be
       -0.9828367 0.13610964 -0.13607147 -0.25118783
0000b0 65 c0 b7 bd dc 9d f9 be b4 b1 b6 be 6e 06 10 be
       -0.08972243 -0.4875325 -0.35682452 -0.14064953
0000c0 16 8d 53 be 7f 7c 7e bd 28 82 e7 be 16 68 8c bf
       -0.20659289 -0.062130447 -0.4521649 -1.0969265
0000d0 ea 73 cc 3d ae b4 89 be ea 40 03 3d f6 d5 68 be
       0.09983046 -0.2689566 0.03204433 -0.2273787
0000e0 2a e0 99 3d 84 f4 9f 3e 6c ce c7 be 16 07 5f 3e
       0.07513459 0.31241238 -0.39024675 0.21780047
0000f0 15 fd 5f be 34 cb 84 3f ae 7e c2 bd ae 3f 69 be
       -0.21873887 1.0374513 -0.094968185 -0.22778198

fc3.bias f4 [2]
000000 ca 7f fa be c3 f2 60 3e
       -0.4892562 0.21967606
